…
False, save_period=-1, save_txt=False, scale=0.5, seed=42, shear=0.0, show=False, show_boxes=True, show_conf=True, show_labels=True, simplify=True, single_cls=False, source=None, split=val, stream_buffer=False, task=detect, time=None, tracker=botsort.yaml, translate=0.1, val=True, verbose=True, vid_stride=1, visualize=False, warmup_bias_lr=0.1, warmup_epochs=3.0, warmup_momentum=0.8, weight_decay=0.0005, workers=16, workspace=None

                   from  n    params  module                                       arguments                     
  0                  -1  1      1392  ultralytics.nn.modules.conv.Conv             [3, 48, 3, 2]                 
  1                  -1  1     41664  ultralytics.nn.modules.conv.Conv             [48, 96, 3, 2]                
  2                  -1  2    111360  ultralytics.nn.modules.block.C2f             [96, 96, 2, True]             
  3                  -1  1    166272  ultralytics.nn.modules.conv.Conv             [96, 192, 3, 2]               
  4                  -1  4    813312  ultralytics.nn.modules.block.C2f             [192, 192, 4, True]           
  5                  -1  1    664320  ultralytics.nn.modules.conv.Conv             [192, 384, 3, 2]              
  6                  -1  4   3248640  ultralytics.nn.modules.block.C2f             [384, 384, 4, True]           
  7                  -1  1   1991808  ultralytics.nn.modules.conv.Conv             [384, 576, 3, 2]              
  8                  -1  2   3985920  ultralytics.nn.modules.block.C2f             [576, 576, 2, True]           
  9                  -1  1    831168  ultralytics.nn.modules.block.SPPF            [576, 576, 5]                 
 10                  -1  1         0  torch.nn.modules.upsampling.Upsample         [None, 2, 'nearest']          
 11             [-1, 6]  1         0  ultralytics.nn.modules.conv.Concat           [1]                           
 12                  -1  2   1993728  ultralytics.nn.modules.block.C2f             [960, 384, 2]                 
 13                  -1  1         0  torch.nn.modules.upsampling.Upsample         [None, 2, 'nearest']          
 14             [-1, 4]  1         0  ultralytics.nn.modules.conv.Concat           [1]                           
 15                  -1  2    517632  ultralytics.nn.modules.block.C2f             [576, 192, 2]                 
 16                  -1  1         0  torch.nn.modules.upsampling.Upsample         [None, 2, 'nearest']          
 17             [-1, 2]  1         0  ultralytics.nn.modules.conv.Concat           [1]                           
 18                  -1  2    129792  ultralytics.nn.modules.block.C2f             [288, 96, 2]                  
 19                  -1  1     83136  ultralytics.nn.modules.conv.Conv             [96, 96, 3, 2]                
 20            [-1, 15]  1         0  ultralytics.nn.modules.conv.Concat           [1]                           
 21                  -1  2    462336  ultralytics.nn.modules.block.C2f             [288, 192, 2]                 
 22                  -1  1    332160  ultralytics.nn.modules.conv.Conv             [192, 192, 3, 2]              
 23            [-1, 12]  1         0  ultralytics.nn.modules.conv.Concat           [1]                           
 24                  -1  2   1846272  ultralytics.nn.modules.block.C2f             [576, 384, 2]                 
 25                  -1  1   1327872  ultralytics.nn.modules.conv.Conv             [384, 384, 3, 2]              
 26             [-1, 9]  1         0  ultralytics.nn.modules.conv.Concat           [1]                           
 27                  -1  2   4207104  ultralytics.nn.modules.block.C2f             [960, 576, 2]                 
 28    [18, 21, 24, 27]  1   2296732  ultralytics.nn.modules.head.Detect           [3, 16, None, [96, 192, 384, 576]]
YOLOv8m-dentex-v3-p2-highrecall summary: 209 layers, 25,052,620 parameters, 25,052,604 gradients, 98.5 GFLOPs

Transferred 319/581 items from pretrained weights
Freezing layer 'model.28.dfl.conv.weight'
[34m[1mAMP: [0mrunning Automatic Mixed Precision (AMP) checks...
[34m[1mAMP: [0mchecks passed вң…
[34m[1mtrain: [0mFast image access вң… (ping: 0.0Вұ0.0 ms, read: 3421.0Вұ1574.1 MB/s, size: 963.3 KB)
…
